w1d2/best_decoder_only_rev_sequence_model.pt (torch, 411924 bytes, 27 tensors)

token_embedding.weight f4 [10, 64]
0	0x40083060	2.1279526
1	0x3f0e7ef0	0.5566244
2	0x3ef6b0d0	0.48181772
3	0x3f4b069a	0.7930695
4	0x3f4becaa	0.79657996
5	0x3ee0414b	0.43799815
6	0xbdeeac27	-0.11653929
7	0xbf386984	-0.72036004
8	0x3f8094b4	1.004538
9	0xbedd5227	-0.4322674
10	0x3f68632b	0.9077632
11	0x3e63534c	0.22199744
12	0xbf964486	-1.1739662
13	0xbe9a5ded	-0.30149785
14	0x3e43b4f6	0.19112
15	0x3f2eafeb	0.6823718
16	0xbfed95b0	-1.8561306
17	0x3f13f0ae	0.57789123
18	0xbf17b227	-0.59256214
19	0x3f9eae46	1.2396934
20	0xbef45f1b	-0.4772881
21	0x3f3021b3	0.6880142
22	0x3e3149c4	0.17313296
23	0x3f858263	1.0430416
24	0xbf13f144	-0.5779002
25	0xbf0a469e	-0.54014003
26	0x3e14e0b0	0.14538836
27	0x3f62d59f	0.8860721
28	0x3e049e8f	0.1295111
29	0x3d2b1101	0.041764263
30	0xbe973d22	-0.29538828
31	0xbfc3c983	-1.5295871
32	0xbe1bc484	-0.15211684
33	0x3f2b51b3	0.6692154
34	0xbf601c67	-0.8754334
35	0xbf925755	-1.1432902
36	0x3dfbf149	0.12301881
37	0xbfaddee2	-1.3583643
38	0x3faba897	1.3410825
39	0xbf56739d	-0.8377016
40	0xbf8b2d8c	-1.0873275
41	0x3ec0ab50	0.376307
42	0x3f558f62	0.8342191
43	0x3f8e740a	1.1129162
44	0x400a659f	2.1624525
45	0xbf83d05c	-1.0297961
46	0x3f0bf3a9	0.5466867
47	0x3f8982d6	1.0743053
48	0x3fb531b2	1.4155791
49	0xbf97e241	-1.1865922
50	0xbeaf2a9b	-0.34212193
51	0xbf4cbb23	-0.7997305
52	0xbe16d3c4	-0.1472922
53	0xbee191c6	-0.4405653
54	0x3f3d28a9	0.7389017
55	0xbebfa06e	-0.37427086
56	0x3d0cde74	0.034391835
57	0xbef97ff7	-0.48730442
58	0xbf0bb46b	-0.5457217
59	0xbf08aff8	-0.53393507
60	0x3c41b724	0.011823449
61	0xbf4c1668	-0.7972169
62	0x3ee0f436	0.43936318
63	0xbe6ec2f3	-0.23316555
64	0x3f11147d	0.5667189
65	0xbc38b541	-0.011273683
66	0xbf0ce36e	-0.5503453
67	0x3ff56c45	1.9173666
68	0x3f585342	0.8450204
69	0x3fec26df	1.8449363
70	0xbea79bba	-0.32735997
71	0xbf2458c7	-0.64197963
72	0x3d8d39b2	0.0689577
73	0x3da05c0f	0.07830059
74	0xbd885c72	-0.066582575
75	0xbfaacd88	-1.3343973
76	0xbde37dbc	-0.11107966
77	0xbfb0bf88	-1.3808451
78	0x3f29d5a5	0.6634162
79	0x3fac8aed	1.3479897
80	0xbe8beb24	-0.27327836
81	0x3f3e83cc	0.74419856
82	0xbf66c7b1	-0.90148455
83	0x3d8167f0	0.06318653
84	0xbf1ee2db	-0.62064904
85	0x3f2e1c4d	0.68011934
86	0xbf1dcd7e	-0.6164168
87	0xbdd54b44	-0.104147464
88	0x3e58e162	0.21179727
89	0x3f271b50	0.6527605
90	0xbf8e191f	-1.1101416
91	0xbf2460c0	-0.6421013
92	0xbf6b5663	-0.9192869
93	0xbf1c0f39	-0.6096073
94	0x3ef2e8e0	0.47443295
95	0x3f972ccd	1.1810547
96	0x3d57f557	0.05272421
97	0x3b0565a4	0.0020354772
98	0xbed5598e	-0.41669887
99	0x3fa98a18	1.3245268
100	0x3e1ac0c8	0.15112603
101	0xbcded7b4	-0.027202465
102	0x3f0920fc	0.53565955
103	0x3e935902	0.28778845
104	0xbd9b3f62	-0.07580449
105	0xbf53b36e	-0.8269566
106	0xbe9ed666	-0.31022948
107	0x3fad8347	1.3555688
108	0xbf3d0fe2	-0.7385236
109	0x3fc7e4ff	1.5616759
110	0xbeb1b60a	-0.34709197
111	0xbd8c679e	-0.06855701
112	0x3e80dd9d	0.25169078
113	0xbfc2e898	-1.5227232
114	0xbff45a76	-1.9090106
115	0x3fda190b	1.7038893
116	0xbf2f2264	-0.6841185
117	0xbf3d955e	-0.7405604
118	0xbd068829	-0.032844696
119	0xc004a23f	-2.0724027
120	0x3f8ee270	1.1162853
121	0xbf3bb222	-0.73318684
122	0xbd9d03d0	-0.07666743
123	0x3f46939e	0.77568996
124	0xbfb67ef2	-1.4257491
125	0x3e23138b	0.15925424
126	0xbeec5e67	-0.46165773
127	0x3e99678a	0.29961807
128	0x3f5a6903	0.85316485
129	0xbe037d0d	-0.12840672
130	0xbc7bacd4	-0.01536103
131	0xbe8d4c14	-0.27597106
132	0xbf498277	-0.787147
133	0xbf23dd78	-0.6400981
134	0x3f1ed519	0.6204391
135	0x3ea3ef4a	0.320185
136	0xbf7a2bb5	-0.9772294
137	0xbe9f1528	-0.31070828
138	0x3e9e6d9f	0.3094301
139	0x3cfa3fe6	0.030548047
140	0xbf7f4ca5	-0.99726325
141	0xbece376f	-0.40276667
142	0xbe1365b4	-0.14394265
143	0x3f049991	0.51796824
144	0x3eb3b3ef	0.35098216
145	0x3f89b54d	1.0758454
146	0x3f1deb95	0.61687595
147	0x3ffb7e30	1.9647884
148	0xbedcbffd	-0.43115225
149	0x3fbc6269	1.4717532
150	0xbf4dfc10	-0.8046274
151	0xbf48b276	-0.7839731
152	0xbf29fba2	-0.66399586
153	0xbe8826b4	-0.26592028
154	0xbfeef583	-1.8668674
155	0xbec585d0	-0.38578653
156	0x3ee800ea	0.45313197
157	0xbfc95ae1	-1.5730859
158	0xbf5c5f7d	-0.86083204
159	0x3ec6f91d	0.38861933
160	0x3f7f7235	0.9978364
161	0x3ef17556	0.47159833
162	0xbe39db47	-0.18150054
163	0xbf9c1df2	-1.2196639
164	0x3f1abaa7	0.6044106
165	0x3e581507	0.21101771
166	0xbf9a78f7	-1.2068166
167	0x3f04506c	0.51685214
168	0xbf2963a4	-0.66167665
169	0x3fe20af5	1.7659594
170	0x3f533d10	0.8251505
171	0x3fc47411	1.5347921
172	0x3eb4c94d	0.3530983
173	0xc0112cef	-2.2683675
174	0xbf50fe35	-0.8163789
175	0xbf154adb	-0.58317345
176	0xbf855322	-1.0415995
177	0xbf0e4b35	-0.55583507
178	0x3eea6a2e	0.45784134
179	0xbf3a568a	-0.727883
180	0x3fdf4dd3	1.7445625
181	0xbf323ad4	-0.69621015
182	0x3eb75916	0.35810155
183	0x3f8c6912	1.0969565
184	0x3f8ea3ef	1.1143779
185	0xbfb3f624	-1.4059491
186	0x3f3ad349	0.72978646
187	0xbf405880	-0.7513504
188	0xbd9664cb	-0.073434435
189	0xbf934957	-1.1506757
190	0x3f456541	0.77107626
191	0x3dbaafb5	0.09115545
192	0x3cbb9712	0.022899184
193	0xbd857bb2	-0.06517734
194	0x3f8fdd81	1.1239473
195	0x3ec35e21	0.38157752
196	0x3ef2d3e7	0.47427294
197	0xbe63901a	-0.22222939
198	0xbe3392b3	-0.1753643
199	0x3f852909	1.0403148
200	0x3e90983f	0.28241155
201	0x3f086576	0.5327982
202	0xbe8510eb	-0.2598947
203	0x3f6e228e	0.93021476
204	0x3dc71b0f	0.09721958
205	0x3e1c05e6	0.15236625
206	0xbe94117c	-0.2891959
207	0x3f2f5bec	0.68499637
208	0x3f126588	0.57186174
209	0xbf26943e	-0.6506995
210	0x3f36ede2	0.7145673
211	0xbf898a2b	-1.074529
212	0xbfe99ecd	-1.8251587
213	0xbe19a49b	-0.15004198
214	0x3e92b41d	0.2865304
215	0xbe953b5a	-0.29146844
216	0x3fd1f37d	1.6402432
217	0xbe46ed1b	-0.19426386
218	0x3efbf023	0.49206647
219	0x3d3fa21c	0.04678546
220	0x3df22f32	0.11825408
221	0xbe7a0a8b	-0.24418084
222	0xbf0561d1	-0.5210238
223	0xbe24b0c4	-0.16083056
224	0xbf112d32	-0.5670959
225	0x3f6acf51	0.9172259
226	0x3eac067e	0.33598703
227	0x40035f82	2.0527043
228	0xbf0596b2	-0.5218307
229	0xbf55c70b	-0.8350684
230	0x3df33fff	0.11877441
231	0x3eebc7d2	0.46050888
232	0xbeb3c00d	-0.3510746
233	0x3e9efd6c	0.3105272
234	0x3f8d2b72	1.1028883
235	0xbee93187	-0.455456
236	0xbf66895d	-0.9005335
237	0x3e27e261	0.1639495
238	0x3fb48dfb	1.4105829
239	0x3f8007b5	1.0002352
240	0xbde1eb04	-0.11031154
241	0xbf55d11a	-0.8352219
242	0xbf546c82	-0.8297807
243	0x3e5417dd	0.20712228
244	0xbf0ddcd2	-0.5541507
245	0xbf9e271d	-1.2355686
246	0xbe38b40c	-0.18037432
247	0x3e9839de	0.2973165
248	0xbf4ba637	-0.795505
249	0x3e0003b8	0.12501419
250	0xbea72ebf	-0.32652852
251	0x3e86a997	0.26301262
252	0xbeeaf1a6	-0.45887488
253	0xbf7bc282	-0.9834367
254	0x3eddc8b3	0.43317184
255	0xbfab949a	-1.3404725

decoder_blocks.0.MLP.linear_1.weight f4 [256, 64]
0	0xbe09ed28	-0.13469374
1	0x3d7631ef	0.060106214
2	0xbda40c2c	-0.08010134
3	0x3dfc47b5	0.123183645
4	0xbc09dca7	-0.008414424
5	0x3dff51e4	0.12466791
6	0x3dcca686	0.09992699
7	0xbdb86196	-0.09002988
8	0x3d5cdfe2	0.05392445
9	0x3cf230e9	0.029564338
10	0x3d8b454f	0.06800329
11	0x3d6925df	0.056920882
12	0x3e09bba1	0.13450481
13	0x3db47faa	0.088134125
14	0x3dd75103	0.10513499
15	0xbc0ff9a2	-0.008787544
16	0x3dc3bc77	0.09557431
17	0xbde723ed	-0.11286149
18	0x3bfc65de	0.007702573
19	0x3db7282c	0.08943209
20	0x3d794358	0.06085524
21	0x3bf79493	0.007555553
22	0x3daa6dca	0.08321722
23	0x3d52f7ba	0.05150578
24	0xbd409571	-0.04701752
25	0xbd840a28	-0.0644725
26	0x3da867ac	0.08222899
27	0x3c767718	0.015043043
28	0x3c88bef4	0.016692616
29	0xbe077858	-0.13229501
30	0xbdb685e8	-0.08912259
31	0xbdb34e8b	-0.08755215
32	0xbca6a85d	-0.020343954
33	0x3cde1654	0.027110256
34	0x3d802746	0.06257491
35	0x3d63fc67	0.05566063
36	0xbd79add2	-0.060956784
37	0x3d914558	0.070933044
38	0xbdb4142c	-0.0879291
39	0xbdde0519	-0.10840816
40	0x3e103b00	0.14085007
41	0xbd578788	-0.052619487
42	0xbdf24421	-0.11829401
43	0x3d2a57cc	0.041587636
44	0xbc754edd	-0.014972416
45	0xbdc024ec	-0.09382042
46	0x3d2afe3a	0.041746356
47	0x3d8b7588	0.06809527
48	0xbd825e93	-0.06365695
49	0x3cac61f5	0.021042803
50	0x3dad4618	0.08460635
51	0x3d86dd4f	0.0658518
52	0x3c09cabb	0.008410151
53	0x3d65f93a	0.056145884
54	0xbe11e1d9	-0.1424631
55	0x3d7ed89c	0.062218294
56	0xbd70e9b8	-0.05881664
57	0xbbb4be7b	-0.005515871
58	0xbdcf59ba	-0.10124536
59	0x3db84a46	0.089985415
60	0x3d8b045f	0.06787943
61	0x3d35bf5c	0.044371948
62	0x3da37563	0.07981374
63	0x3da18d5f	0.078882925
64	0xbd646052	-0.05575592
65	0xbe011f2f	-0.12609552
66	0x3d8a8b3f	0.0676484
67	0x3d50040d	0.050785113
68	0x3dbb1353	0.09134545
69	0xb95637b2	-0.00020429378
70	0x3ceff975	0.029293755
71	0xbd6476d6	-0.055777393
72	0xbdb88e0a	-0.09011467
73	0xbd4c49a2	-0.04987491
74	0xbd267ced	-0.040646482
75	0xbd1c0b92	-0.03809697
76	0xbcd16ef5	-0.025565604
77	0x3d173442	0.03691507
78	0x3da5da3a	0.08098264
79	0x3cddd153	0.027077353
80	0xbd5c7774	-0.053824857
81	0x3be94b09	0.0071195406
82	0xbd982bb3	-0.0743021
83	0xbdb34dc9	-0.08755071
84	0xbda95bca	-0.082694605
85	0xbd861d8e	-0.06548606
86	0x3d4f1acd	0.05056267
87	0x3c62c11c	0.013839986
88	0x3e0f38c9	0.13986506
89	0x3d907490	0.070534825
90	0xbdc32dc8	-0.095302165
91	0xbd4fe788	-0.050757915
92	0xbdfad9af	-0.12248551
93	0x3e0f2b7a	0.13981429
94	0x3dcfdf44	0.101500064
95	0x3c72eb7f	0.014826654
96	0x3daa8bcc	0.083274454
97	0x3cbf69d1	0.023365887
98	0xbdabcdac	-0.08388838
99	0x3de4c7f8	0.111709535
100	0xbcd5e698	-0.026110932
101	0xbd7fd2d0	-0.062456906
102	0xbbfea593	-0.007771203
103	0x3d11daa5	0.035608906
104	0xbd9e926c	-0.077427715
105	0xbdf2d776	-0.11857502
106	0x3d15312c	0.036423847
107	0x3c6e5aa5	0.0145479785
108	0x3d77aaa2	0.060465463
109	0xbdcd096c	-0.10011563
110	0xbc855924	-0.016277857
111	0xbcc4e29b	-0.024033835
112	0x3c73aa3c	0.01487213
113	0xbdc91c3b	-0.09819838
114	0x3d164615	0.03668793
115	0xbda7bd41	-0.08190394
116	0x3dbace5c	0.09121391
117	0xbdba81a1	-0.09106756
118	0x3d43c12a	0.047791637
119	0x3cbee2c6	0.023301493
120	0x3ca9f7a7	0.020747973
121	0xbe01a126	-0.1265913
122	0x3d6e09f1	0.05811495
123	0xbd5bb1fb	-0.053636532
124	0x3d865b15	0.06560341
125	0xbd84e0f5	-0.0648822
126	0x3deb74bf	0.11496877
127	0x3d7053a5	0.05867352
128	0xbcf96a35	-0.030446151
129	0xbdb90b28	-0.09035331
130	0x3dddfe9f	0.10839581
131	0x3ce8eb3f	0.028432487
132	0xbd16eae6	-0.03684511
133	0x3c48eefe	0.012264011
134	0xbb002a77	-0.001955656
135	0xbcf5edb1	-0.030020567
136	0x3c953529	0.018213825
137	0xbd2469da	-0.04014001
138	0x3d3c3d70	0.04595703
139	0x3db1447a	0.08655639
140	0x3d7df2bc	0.061999068
141	0x3d9ae905	0.07563976
142	0xbdcba195	-0.09942929
143	0x3cc70918	0.024296328
144	0x3da8aa3f	0.08235597
145	0x3de1ef9b	0.11032029
146	0xbdb096fa	-0.086225465
147	0x3d1bb486	0.038013957
148	0x3c81a068	0.015823558
149	0xbdefb967	-0.117052846
150	0x3d9ca5c7	0.07648807
151	0x3cc36955	0.023853937
152	0x3d9fc967	0.07802086
153	0x3dcfe43b	0.101509534
154	0xbd9be188	-0.07611376
155	0xbe068a4d	-0.13138695
156	0x3d56e50a	0.052464522
157	0xbd840004	-0.064453155
158	0x3d6976dc	0.05699812
159	0xbd6c3845	-0.05767085
160	0x3d209163	0.03920115
161	0xbcaa3ccd	-0.020780945
162	0x3d1d93e0	0.038471103
163	0xbdbbf212	-0.091770306
164	0xbd491764	-0.049094573
165	0xbdfefb27	-0.12450247
166	0xbd18d586	-0.037313007
167	0x3d4398d9	0.04775319
168	0x3dc50b14	0.096212536
169	0xbcd3c7b6	-0.025852066
170	0x3e0d3301	0.13788988
171	0xbd9d0490	-0.07666886
172	0xbc049962	-0.00809321
173	0x3db1f00b	0.08688363
174	0x3d419a4b	0.047266286
175	0x3cd1f9b0	0.025631756
176	0x3da771fc	0.08176038
177	0x3da46be6	0.080283925
178	0xbe11d660	-0.14241934
179	0xbb4df00f	-0.0031423604
180	0xbcc59bca	-0.024122138
181	0x3dc44b01	0.09584618
182	0x3cf516f2	0.029918168
183	0x3dc53c39	0.09630627
184	0x3d831969	0.06401331
185	0xbd2bc37f	-0.041934486
186	0xbd78f680	-0.060781956
187	0xbdd002ee	-0.10156809
188	0x3dd3c1ac	0.10339674
189	0xbdc38c00	-0.09548187
190	0xbdcba388	-0.099433005
191	0x3cce5117	0.025185151
192	0xbe1a5f17	-0.15075336
193	0xbd17bf75	-0.037047822
194	0x3d8ff898	0.07029837
195	0x3d6967e1	0.056983832
196	0xbd866ffb	-0.06564327
197	0xbcf2c5ed	-0.029635394
198	0x3b2f50b3	0.0026750981
199	0xbd624f9c	-0.055251703
200	0xbc6d00a9	-0.014465489
201	0x3d758685	0.05994274
202	0x3d9fdbd1	0.078055985
203	0x3db7e36f	0.089789264
204	0xbdfb9cdd	-0.12285779
205	0xbe02f7d3	-0.1278985
206	0xbd1f3baa	-0.03887526
207	0x3da37b93	0.07982554
208	0x3d340617	0.04395112
209	0x3cdd8cc4	0.027044661
210	0xbd81b316	-0.06332986
211	0x3dd7db2b	0.1053985
212	0x3ddd6ec5	0.10812143
213	0x3da6088d	0.081071
214	0xbccef141	-0.025261523
215	0x3cda9b97	0.02668552
216	0x3cd5a218	0.026078269
217	0xbd495165	-0.04914989
218	0x3c73466c	0.014848333
219	0x3d448342	0.04797674
220	0x3d0a360d	0.033742953
221	0x3dae9539	0.08524556
222	0x3b4de266	0.0031415462
223	0x3d22efb2	0.039779373
224	0xbdc7af39	-0.09750218
225	0xbd61b6db	-0.055106025
226	0x3d2294ee	0.03969281
227	0xbd8487af	-0.06471192
228	0x3ca0b397	0.019616885
229	0x3d75f6fd	0.06005
230	0xbd616773	-0.055030297
231	0xbc023fe1	-0.0079498
232	0x3c2d708f	0.010585918
233	0x3de752b1	0.11295069
234	0xbdae8143	-0.085207485
235	0xbdc464c6	-0.095895335
236	0x3afdfbd4	0.0019377419
237	0x3d67c645	0.05658557
238	0xbdf2decc	-0.118589014
239	0xbe089215	-0.13336976
240	0xbc91309d	-0.017723376
241	0xbdbb7125	-0.0915244
242	0xbda512c9	-0.080602236
243	0xbcd8639b	-0.026414683
244	0x3e1ca369	0.15296711
245	0x3dc08f68	0.094023526
246	0xbd490078	-0.049072713
247	0xbd1acca7	-0.037792828
248	0xbda251c0	-0.07925749
249	0x3dd7a8f6	0.105302736
250	0xbcdf9004	-0.027290352
251	0x3d2aebf5	0.041728932
252	0xba663fe7	-0.0008783326
253	0xbd892afc	-0.06697652
254	0xbd578dfa	-0.052625634
255	0xbc3f893a	-0.011690432

decoder_blocks.0.MLP.linear_1.bias f4 [256]
0	0x3ced1ef2	0.02894542
1	0xbdacbaab	-0.084340416
2	0x3d0ded68	0.034650236
3	0xbdd3b477	-0.10337155
4	0x3dc61ad8	0.09673089
5	0xbde3ff8e	-0.111327276
6	0x3c101e37	0.008796266
7	0x3d7702a7	0.060305264
8	0xbddf4552	-0.10901894
9	0xbd61bc85	-0.055111427
10	0xbd34962f	-0.04408854
11	0xbd0f9d56	-0.035062157
12	0xbd9623c4	-0.073310405
13	0xbdda72b1	-0.10666407
14	0xbd5e8fcd	-0.054336358
15	0xbd0d661d	-0.03452121
16	0x3d5687d3	0.052375626
17	0x3c93c775	0.018039444
18	0x3c9856d7	0.018596096
19	0xbd2709a6	-0.040780686
20	0x3c7ed20a	0.015553007
21	0x3d1e96cd	0.038718034
22	0xbb071389	-0.002061101
23	0xbd928902	-0.071550384
24	0x3cfc7636	0.030818086
25	0x3c23a6df	0.009988516
26	0xbded6f01	-0.11593438
27	0x3d54c105	0.05194189
28	0xbda38c03	-0.079856895
29	0xbde963a9	-0.11395962
30	0x3d87ea9f	0.06636547
31	0xbd100508	-0.03516105
32	0x3daacefb	0.0834026
33	0xbd62c083	-0.055359375
34	0x3d2a40d1	0.04156572
35	0x3ccb02e0	0.024781644
36	0xbc54963a	-0.01297527
37	0xbd640479	-0.055668328
38	0x3d069fdb	0.032867294
39	0xbd8c37e0	-0.06846595
40	0x3bfd871a	0.0077370526
41	0x3ddb8794	0.10719219
42	0xbd9016cd	-0.07035599
43	0xbd1f495c	-0.03888832
44	0xbdc628f5	-0.09675781
45	0x3d9abb1f	0.07555222
46	0x3d1112c2	0.03541828
47	0x3dfcd28a	0.12344845
48	0xbd4a48bb	-0.049385767
49	0x3d15d475	0.036579568
50	0x3d8c1b0c	0.06841096
51	0xbde15585	-0.1100264
52	0x3c15b6ac	0.009137791
53	0xbd4b662f	-0.049657997
54	0xbcaeaac8	-0.02132167
55	0xbb7f83e0	-0.0038988516
56	0x3ddef2ed	0.10886178
57	0xbd78bbf8	-0.060726136
58	0x3ddc6710	0.10761845
59	0x3db2ee2f	0.08736836
60	0xbd8afba0	-0.06786275
61	0x3d5db7e5	0.054130454
62	0xbde5c9e1	-0.11220146
63	0xbc3d9241	-0.011570514
64	0x3d162bb9	0.03666279
65	0x3de53327	0.11191397
66	0xbdc9ae6f	-0.09847724
67	0x3ca0e339	0.019639598
68	0xbe124c3d	-0.14286895
69	0x3d03de2f	0.032194313
70	0x3de40fdc	0.111358374
71	0xbca1bfbc	-0.019744746
72	0x3d86b896	0.06578176
73	0x3dbc29d0	0.091876626
74	0xbc710f90	-0.014713183
75	0x3cbd2260	0.02308768
76	0x3bc3df85	0.0059775733
77	0xbdcfe126	-0.101503655
78	0xbd11e5bb	-0.03561948
79	0x3da7be27	0.081905656
80	0x3dccfeb6	0.1000952
81	0xbe15d396	-0.14631495
82	0xbd9449c3	-0.072406314
83	0x3dc33aba	0.095326856
84	0xbcdea0e1	-0.027176322
85	0x3da5549c	0.080727786
86	0xbd040297	-0.032229032
87	0x3db15998	0.08659667
88	0x3cd3ec24	0.025869437
89	0x3d0155b8	0.03157589
90	0x3ca2f3b7	0.019891603
91	0x3cced54a	0.025248189
92	0x3de45c77	0.11150449
93	0xbde3be23	-0.1112025
94	0xbd006c37	-0.0313532
95	0xbd6f90c3	-0.058487665
96	0x3da7a1a9	0.08185131
97	0x3d38a455	0.045078594
98	0x3d926df1	0.07149876
99	0x3d5faf26	0.054610394
100	0xbe078eac	-0.13238019
101	0xbdc35063	-0.09536817
102	0xbc13bec3	-0.009017649
103	0xbd2e06a5	-0.042486805
104	0xbb9f559b	-0.0048625
105	0x3d9bced2	0.07607807
106	0x3bafdf07	0.005367163
107	0xbce8281e	-0.028339442
108	0x3dfcfe0e	0.123531446
109	0xbde7c3bd	-0.11316631
110	0x3d7aac96	0.061199747
111	0x3d7fcfbd	0.062453974
112	0x3ca05243	0.019570475
113	0x3d3e967e	0.04653024
114	0x3dcc1aa4	0.09966019
115	0xbe0535b0	-0.13008761
116	0x3daa714f	0.08322393
117	0xbd5a9d46	-0.053372644
118	0xbc9865ce	-0.018603232
119	0x3d9dfa41	0.07713748
120	0x3d7b2545	0.06131484
121	0xbd63b7b8	-0.05559513
122	0x3dd569b9	0.104205556
123	0x3d881362	0.06644322
124	0xbda8b062	-0.08236767
125	0xbdec15f4	-0.11527625
126	0x3d862067	0.06549149
127	0xbdf9a319	-0.121893115
128	0x3c64d724	0.013967309
129	0xbddf47f7	-0.10902398
130	0xbd832233	-0.06403007
131	0x3cefcede	0.029273447
132	0xbc84cd8a	-0.01621129
133	0x3be3b4f7	0.006949063
134	0x3d92b10e	0.07162677
135	0x3b8b48d9	0.0042506275
136	0x3c97e87a	0.01854347
137	0x3c23a2fd	0.00998759
138	0x3d5ef0dd	0.054428924
139	0xbdd3f761	-0.10349918
140	0x3dff56e2	0.124677435
141	0xbd2634e7	-0.040577795
142	0x3d941212	0.07230009
143	0x3e033b80	0.12815666
144	0xbd8bde87	-0.06829553
145	0xbdfe880e	-0.12428294
146	0xbddf0304	-0.10889247
147	0x3dc2249b	0.09479638
148	0xbc92810a	-0.017883796
149	0x3b91acf5	0.004445667
150	0xbd953a36	-0.072864935
151	0xbdceb253	-0.100926064
152	0x3d472626	0.048620366
153	0xbdd62592	-0.10456385
154	0x3d8be5b6	0.06830923
155	0x3d0ae905	0.03391363
156	0x3c795de3	0.015220138
157	0x3d2f72aa	0.04283396
158	0x3d962c47	0.07332664
159	0x3d736898	0.05942592
160	0x3e11ffe4	0.14257771
161	0x3d186850	0.037208855
162	0x3c97e3bd	0.018541211
163	0x3dfaad43	0.12240078
164	0xbdab27c4	-0.08357194
165	0xbda242eb	-0.0792292
166	0xbe350bea	-0.17680326
167	0xbdf93c5e	-0.12169717
168	0xbdc0d70d	-0.09416018
169	0xbb10d04b	-0.0022096809
170	0xbb2bf848	-0.0026240516
171	0x3c3efd97	0.01165714
172	0x3ca13a93	0.01968125
173	0xbdd148c2	-0.102189556
174	0xbdd413f2	-0.10355367
175	0x3e04892c	0.12942952
176	0xbc1f6307	-0.0097282
177	0x3df26981	0.118365295
178	0x3de735cf	0.1128956
179	0xbdb011cc	-0.085971445
180	0xbde60b5d	-0.11232636
181	0xbb370ceb	-0.0027931284
182	0x3db7cabb	0.08974215
183	0xbd2d523e	-0.04231476
184	0xbda12559	-0.078684516
185	0xbb0686fa	-0.002052723
186	0x3d31c2a6	0.04339852
187	0x3cffa590	0.031206876
188	0xbd884afd	-0.06654928
189	0x3d85444a	0.06507166
190	0x3d0a69f0	0.033792436
191	0x3ddd730f	0.10812961
192	0x3dc47a3f	0.09593629
193	0xbe07ee04	-0.1327439
194	0x3da6590f	0.08122455
195	0xbde70327	-0.11279898
196	0x3d28cd37	0.041211333
197	0xbc4f0b02	-0.012636902
198	0x3dd32e25	0.10311536
199	0xbd9371aa	-0.07199414
200	0xbd59bbea	-0.053157724
201	0xbc36fba6	-0.011168396
202	0xbd4db8ae	-0.050224952
203	0xbd249512	-0.040181227
204	0x3cb9475c	0.022617035
205	0xbcbac34e	-0.022798207
206	0xbd6064c9	-0.054783616
207	0xbdf02b96	-0.11727063
208	0x3d6da110	0.05801493
209	0x3d09c5fc	0.03363608
210	0x3d391c2d	0.045192886
211	0x3e06219a	0.13098755
212	0xbd9e3088	-0.077241
213	0x3caddb4b	0.021222731
214	0xbda79b16	-0.08183877
215	0xbdb425f4	-0.087963015
216	0xbd0528d3	-0.032509636
217	0xbca7bfcb	-0.020477196
218	0xbd8bb74b	-0.0682207
219	0xbdc8c62b	-0.098034225
220	0xbc5e7761	-0.013578267
221	0xbc191344	-0.009342972
222	0xbd03c412	-0.03216941
223	0xbdf835e7	-0.12119656
224	0x3dbd42f5	0.09241287
225	0xbdda228b	-0.1065112
226	0x3da8c0f4	0.08239928
227	0x3de3963d	0.1111264
228	0x3d94e913	0.07271018
229	0x3ce43411	0.027856858
230	0x3d4c74b9	0.049916003
231	0x3dc26eec	0.09493813
232	0xbd81cb76	-0.06337635
233	0x3d3f4586	0.046697162
234	0x3de2ee2b	0.11080583
235	0xbd52a003	-0.05142213
236	0x3c2c40e0	0.010513514
237	0xbc4ed7f0	-0.012624726
238	0x3d6a172c	0.057151005
239	0xba1a0acb	-0.0005876242
240	0x3dc5bdc1	0.09655333
241	0xbcd5e6b5	-0.026110986
242	0x3dde3e5b	0.10851737
243	0xbd6b7d8e	-0.057492785
244	0x3e03f9ff	0.12888335
245	0xbd77e377	-0.06051966
246	0xbd80668a	-0.06269558
247	0x3d9a0614	0.075206906
248	0xbc4f593f	-0.012655555
249	0xbd520702	-0.051276214
250	0x3b463c9a	0.0030248524
251	0x3dbedd1a	0.093195155
252	0x3df8829f	0.12134289
253	0x3dd9f694	0.10642734
254	0xbdb135cd	-0.0865284
255	0xba9a5f81	-0.001177773

decoder_blocks.0.MLP.linear_2.weight f4 [64, 256]
0	0x3d88f5b9	0.06687493
1	0x3d47b7a5	0.04875912
2	0xbc65e3c9	-0.014031359
3	0x3c35e66c	0.0111023
4	0xbd8171e1	-0.06320549
5	0xbbf440b8	-0.007454004
6	0x3d796800	0.060890198
7	0x3d4cb253	0.04997475
8	0x3d3591ac	0.044328377
9	0x3d51c2c6	0.05121114
10	0x3d17d900	0.03707218
11	0x3c4b0bde	0.012392966
12	0xbda03eed	-0.07824502
13	0xbc6f883b	-0.014619882
14	0x3ce27005	0.027641306
15	0xbc39368a	-0.011304507
16	0xbd03a9e1	-0.03214443
17	0x3ceb2d13	0.028708016
18	0xbd44750f	-0.0479632
19	0x3c82e668	0.015979007
20	0x3d421bc3	0.047389757
21	0xbd073bcf	-0.033016022
22	0xba67c10c	-0.0008840717
23	0xbcb33671	-0.021876546
24	0x3d8af258	0.06784505
25	0xbd607785	-0.054801483
26	0x3cc20bcf	0.023687271
27	0xbd1dad95	-0.03849562
28	0x3cc7fa8c	0.024411462
29	0x3b063a67	0.0020481588
30	0x3c1baad6	0.00950118
31	0xbc71d5f8	-0.014760487
32	0x3cdcc4e6	0.026949357
33	0xbce1b842	-0.027553681
34	0x3d8daeea	0.06918128
35	0xbd24f2d7	-0.040270653
36	0x3d01146a	0.03151361
37	0xbd88b04f	-0.06674253
38	0xbd96a273	-0.073552035
39	0x3d4bb600	0.049734116
40	0xbd108b88	-0.035289317
41	0xbc89fc2a	-0.016843874
42	0xbd8d9cff	-0.0691471
43	0x3cf29ed0	0.029616743
44	0xbd96c80b	-0.07362374
45	0x3bf7f4c0	0.0075670183
46	0xbc996bec	-0.018728219
47	0x3cb136c1	0.021632554
48	0xbbe00a04	-0.0068371315
49	0xbd845873	-0.06462183
50	0xbc2ef5ba	-0.010678703
51	0xbd2dd7f9	-0.042442296
52	0xbd20c43a	-0.039249636
53	0xbdac9985	-0.08427719
54	0xbd6e61af	-0.058198627
55	0xbd74eed6	-0.059798084
56	0xbc76c9c5	-0.015062754
57	0xbcf60154	-0.03002993
58	0xbca96252	-0.020676766
59	0xbc03e922	-0.008051189
60	0xbbbea2d6	-0.0058177514
61	0xbd2c3efb	-0.04205225
62	0xbbd9dec8	-0.006648872
63	0x3d78035d	0.060550082
64	0xbc5175dc	-0.0127844475
65	0xbc3aac79	-0.01139366
66	0xbc18ebef	-0.009333595
67	0xbd16714b	-0.03672914
68	0x3cde9135	0.02716885
69	0x3cce8054	0.025207676
70	0xbd18c86a	-0.037300505
71	0x3c71b1b0	0.014751837
72	0x3c8f5198	0.017494962
73	0x3addb017	0.0016913441
74	0x3d025cba	0.031826712
75	0xbd72cd7c	-0.059277996
76	0xbd72daa8	-0.059290558
77	0x3ca2acc3	0.01985777
78	0x3d41ce27	0.047315743
79	0x3cbd7fe1	0.023132266
80	0xbc6d9dc7	-0.014502949
81	0xbc3628f1	-0.01111816
82	0x3d25e2c1	0.040499453
83	0xbd50b77a	-0.050956227
84	0xbd35b2fd	-0.04436015
85	0xbc1ddecc	-0.009635638
86	0xbd620350	-0.05517894
87	0xbdee1490	-0.11625016
88	0x3c8d984d	0.017284537
89	0x3d28d4f5	0.041218717
90	0xbc56ad2f	-0.013102814
91	0xbd304c63	-0.043041598
92	0xbd30a8af	-0.04312962
93	0xbbe9cd52	-0.007135072
94	0xbc2dfdb6	-0.010619571
95	0x3ca01175	0.019539574
96	0xbc04f212	-0.008114355
97	0x3d4d1ec8	0.050078183
98	0xbdb15601	-0.08658982
99	0xbd3b4970	-0.045724332
100	0xbd10a87b	-0.035316925
101	0xbcc7e947	-0.024403227
102	0x3a0279dc	0.0004977265
103	0xbd5b69fc	-0.05356787
104	0x3c06d99b	0.008230592
105	0xbc921393	-0.0178316
106	0xbd65a981	-0.056069855
107	0x3df87a00	0.12132645
108	0x3d55cc92	0.052197047
109	0xbc0a6b9f	-0.00844851
110	0xbcbc6c39	-0.023000823
111	0xbda94acd	-0.0826622
112	0xbc14ec4e	-0.009089543
113	0xbbf0a2d1	-0.007343628
114	0xbdee1123	-0.11624362
115	0xbe0107e3	-0.12600665
116	0xbced776f	-0.028987614
117	0xbdf35f91	-0.11883462
118	0x3ad7126a	0.0016408686
119	0x3d54b3a1	0.05192912
120	0x3d858b59	0.06520719
121	0xbb4eec15	-0.0031573821
122	0x3c05211d	0.008125571
123	0x3c72d1cb	0.014820526
124	0x3b61edab	0.0034473937
125	0x3cc9d9a6	0.024639916
126	0xbd9ee27c	-0.07758042
127	0xbcf73ebd	-0.030181283
128	0x3c7c86af	0.01541297
129	0x3d16fb9f	0.03686106
130	0x3d3369fb	0.043802243
131	0xbc23bc0f	-0.009993567
132	0x3ca1c677	0.019747956
133	0xbd5a927e	-0.053362362
134	0x3b912904	0.0044299383
135	0x3d0138df	0.031548377
136	0x3d069a36	0.03286191
137	0xbd150e69	-0.036390696
138	0x3d1eac18	0.03873834
139	0x3cfd2cc0	0.030905128
140	0x3be068ed	0.0068484456
141	0xbc589b7d	-0.013220665
142	0x3bc5ad80	0.0060326457
143	0x3d8ca278	0.06866926
144	0xbd122290	-0.035677493
145	0x3d4a23cd	0.04935055
146	0x3c968eaf	0.018378584
147	0x3d5fdb3d	0.05465244
148	0xbc394ef5	-0.011310329
149	0x3bceed09	0.006314878
150	0xbd95e858	-0.07319707
151	0xbd5e54e0	-0.05428016
152	0xbc7ca651	-0.015420512
153	0x3d88ef22	0.06686236
154	0xb9f2456d	-0.00046209563
155	0xbd01eebd	-0.03172182
156	0x3d0e6af3	0.034769963
157	0x3d9a8998	0.07545775
158	0x3cfe3032	0.03102884
159	0xbd7ab688	-0.06120923
160	0xbe1e3d5e	-0.15453097
161	0xb98d5302	-0.0002695546
162	0x3bac198c	0.005252069
163	0xbc8e4e30	-0.017371267
164	0xbd2a1ffc	-0.04153441
165	0xba8030f8	-0.0009780219
166	0xbd4fdad5	-0.050745804
167	0x3d95e882	0.07319738
168	0xbd831932	-0.0640129
169	0x3cc8807d	0.02447533
170	0x3c91de60	0.017806232
171	0xbddf2a00	-0.10896683
172	0x3d3c2089	0.045929465
173	0xbd4be07f	-0.049774643
174	0xbbf56dcd	-0.007489896
175	0x3d952d98	0.07284087
176	0xbd5944d4	-0.053044155
177	0xbcdf0a7a	-0.027226675
178	0xbaab0bb1	-0.0013049749
179	0xbd20f2e0	-0.039294124
180	0x3d09767a	0.033560254
181	0x3d2fc352	0.04291088
182	0xbd3af2a7	-0.045641568
183	0x3cb3f10b	0.021965524
184	0xbd018078	-0.031616658
185	0xbb46129a	-0.003022349
186	0xbc73ea84	-0.014887456
187	0x3d76113f	0.06007504
188	0x3d73582c	0.05941026
189	0xbc4cf81a	-0.012510324
190	0x3cf7453b	0.030184379
191	0x3d8133a2	0.06308676
192	0xbc002e8a	-0.007823596
193	0xbc5fcf08	-0.0136602
194	0x3cabd6ec	0.020976506
195	0xbd793e4e	-0.060850434
196	0xbb537972	-0.0032268432
197	0xbcd0220c	-0.02540686
198	0xbcedd932	-0.02903423
199	0xbceca5fd	-0.028887743
200	0x3ccdba88	0.02511336
201	0x3c896c77	0.016775353
202	0x3d1d48ad	0.038399387
203	0x3cb14d0e	0.021643188
204	0xbaf54e88	-0.0018715421
205	0x3d8fbaf5	0.07018081
206	0xbcc8ce9f	-0.024512587
207	0xbb6b13a5	-0.0035869863
208	0xbd0e6e36	-0.034773074
209	0x3c86ca4c	0.016453885
210	0xbb40fb6d	-0.0029446736
211	0xbd4a2e32	-0.04936046
212	0x3c9c0064	0.019043155
213	0xbd66a69f	-0.056311246
214	0x3ce1fba1	0.027585806
215	0x3cb6501b	0.022254994
216	0xbceed162	-0.029152576
217	0x3dd0602d	0.10174594
218	0xbb20f0ed	-0.0024557665
219	0xbcbbd2a6	-0.022927593
220	0x3b9ac62c	0.004723331
221	0xbbed9315	-0.0072501996
222	0xbcc968d5	-0.02458612
223	0xbd9324ca	-0.07184751
224	0xbd3ec528	-0.04657474
225	0xbcadd0f4	-0.0212178
226	0x3c1e15fd	0.009648797
227	0x3d5c33a1	0.053760175
228	0xbd5fa729	-0.054602776
229	0xbbdfbbc7	-0.0068278047
230	0x3c9da7d7	0.019245071
231	0xbd9779bd	-0.073962666
232	0x3d82bbc7	0.06383472
233	0xbd2ffd59	-0.04296622
234	0xbd6c3a43	-0.05767275
235	0xbd822998	-0.0635559
236	0x3cebc506	0.028780472
237	0x3d9b2166	0.075747296
238	0xbccbf5eb	-0.024897536
239	0xbb910ad3	-0.004426339
240	0xbd5c65b9	-0.053807948
241	0xbd28ac93	-0.041180205
242	0x3d1ce319	0.038302515
243	0xbd2c7302	-0.042101867
244	0x3cafc39a	0.021455575
245	0xbba940c8	-0.005165193
246	0x3d96d737	0.07365268
247	0xbc98760c	-0.018610977
248	0x3c7a02ef	0.0152594885
249	0x3c6cd1e4	0.014454339
250	0x3cd13e97	0.02554254
251	0x3cb778e4	0.022396512
252	0x3d119542	0.035542734
253	0x3c40097a	0.011721009
254	0x3d7613ca	0.060077466
255	0xbd10d031	-0.035354797

decoder_blocks.0.MLP.linear_2.bias f4 [64]
0	0xbcea4bd0	-0.028600603
1	0x3d3683bf	0.044559237
2	0xbcf3e534	-0.029772379
3	0xbc8725bf	-0.01649749
4	0xbcc4527e	-0.023965117
5	0xbcf38520	-0.029726565
6	0x3c459c7d	0.0120612355
7	0x3c636c0c	0.013880741
8	0xbba7ba73	-0.005118662
9	0x3d05f61f	0.032705422
10	0x3d557005	0.052108783
11	0x3cfeab48	0.031087533
12	0xbd10bc10	-0.0353356
13	0x3d46f826	0.048576497
14	0xbd585234	-0.05281277
15	0xbcaf2758	-0.021381065
16	0x3cdeacfc	0.027182095
17	0xbd55b4a2	-0.052174218
18	0xbc7aa3f1	-0.015297876
19	0xbd0dfb2f	-0.034663375
20	0xbd584ad3	-0.052805733
21	0xbd3e9218	-0.046526045
22	0xbd5b49ed	-0.053537298
23	0xbd643129	-0.055710945
24	0xbbbfb2ac	-0.005850157
25	0xbd7132b3	-0.05888624
26	0xbbe49908	-0.0069762506
27	0x3d7970e3	0.060898673
28	0x3d4f3fa1	0.05059779
29	0xbcedaf26	-0.029014181
30	0xbd687805	-0.056755085
31	0x3d3fabf6	0.046794854
32	0x3d342651	0.043981854
33	0x3d49f98f	0.049310263
34	0xbd536a0e	-0.051614814
35	0x3d150542	0.036381967
36	0x3d3044a9	0.04303423
37	0xbd4b24b5	-0.049595553
38	0xbc6cb2ba	-0.014446909
39	0xbd5551c7	-0.052079942
40	0xbc897bac	-0.016782604
41	0x3c61ed77	0.013789526
42	0x3d4dd8c3	0.05025555
43	0x3cd4e611	0.02598861
44	0xbb339fe4	-0.0027408535
45	0x3cfb7d59	0.030699419
46	0x3d5b87b5	0.053596217
47	0xbca893a9	-0.020578222
48	0xbd7712c6	-0.060320638
49	0x3cc7a7b3	0.024371957
50	0xbbe2402c	-0.0069046225
51	0xbd30b936	-0.04314538
52	0xbd86936f	-0.065710895
53	0x3cf9f7aa	0.030513603
54	0xbcf3ca3f	-0.029759524
55	0x3c8cf90e	0.017208602
56	0xbd30d2c4	-0.04316975
57	0xbd5bd954	-0.053674057
58	0xbd41cc14	-0.047313765
59	0x3ccb82fb	0.02484273
60	0xbd497501	-0.04918385
61	0x3d199fee	0.037506036
62	0xbd5b8dff	-0.053602215
63	0xb9ea7c2e	-0.0004472448

decoder_blocks.0.multiheaded_self_attention.W_QKV.weight f4 [192, 64]
0	0xbc8844b4	-0.016634323
1	0x3e077176	0.13226876
2	0x3d6d3364	0.057910338
3	0x3e7155b7	0.23567854
4	0xbd5443c7	-0.05182245
5	0xbd71e27b	-0.05905388
6	0xbe04c8c6	-0.12967214
7	0x3e0028b3	0.12515526
8	0xbcec3d12	-0.028837714
9	0x3e736b98	0.23771513
10	0xbddaddce	-0.10686837
11	0x3dec74ed	0.11545739
12	0xbd86235e	-0.065497145
13	0xbcacf999	-0.021115111
14	0xbdf15d57	-0.11785381
15	0x3d8032f1	0.06259716
16	0xbc56e74c	-0.013116669
17	0x3d038081	0.032104973
18	0x3d327aae	0.043574028
19	0xbda898c4	-0.08232263
20	0x3beb2e9c	0.007177187
21	0xbde15c47	-0.11003929
22	0xbda12349	-0.07868058
23	0xbc94fe0d	-0.018187547
24	0xbddca758	-0.10774106
25	0x3e166523	0.14687018
26	0x3d9e193a	0.07719655
27	0xbd77b9a0	-0.06047976
28	0x3df5d73c	0.12003943
29	0xbd41ea42	-0.047342546
30	0x393c5c6a	0.00017963504
31	0xbcda57a5	-0.02665312
32	0x3d2fed1b	0.04295073
33	0xbdf1d0f1	-0.118074305
34	0xbd1cd349	-0.038287435
35	0xbd107e4b	-0.035276692
36	0xbe20020d	-0.15625782
37	0xbd6940b6	-0.05694648
38	0x3d65f66e	0.056143217
39	0xbdf8d34a	-0.12149675
40	0x3c48e995	0.012262722
41	0xbd6314d7	-0.055439796
42	0x3d9910aa	0.074738815
43	0x3be2de10	0.0069234446
44	0xbca1616f	-0.01969978
45	0xbcae514b	-0.021278998
46	0xbd7569a1	-0.05991519
47	0xbcddf4de	-0.0270943
48	0x3916d4d6	0.00014384402
49	0x3da7c0c9	0.08191068
50	0xbad85a07	-0.0016506322
51	0xbd3996df	-0.045309898
52	0xbdb0c938	-0.086321294
53	0x3dbbced3	0.09170308
54	0xbdb2d231	-0.08731497
55	0x3cd55527	0.02604158
56	0xbc1b990a	-0.009496937
57	0xbb4e96d4	-0.0031523006
58	0x3d8783fc	0.06616971
59	0x3dc704e4	0.0971773
60	0x3db6d605	0.0892754
61	0x3c5b3f23	0.013381752
62	0xbde712b9	-0.11282868
63	0xbd456f1c	-0.048201665
64	0xbe84a562	-0.25907427
65	0x3c8f9d36	0.017531019
66	0xba6edb91	-0.00091116974
67	0xbd839eba	-0.06426759
68	0xbc3fdcb9	-0.011710339
69	0xbe287522	-0.16450933
70	0x3e118451	0.14210631
71	0xbd8fcc1f	-0.07021355
72	0xbd38a21c	-0.045076475
73	0xbe0a1922	-0.1348615
74	0x3ccda88a	0.02510478
75	0xbdbdf822	-0.09275843
76	0x3ddba82d	0.10725436
77	0xbd8b57fd	-0.06803892
78	0x3e164f7e	0.14678761
79	0xbcf04d30	-0.02933368
80	0x3d20acda	0.039227344
81	0xbabd8350	-0.001445869
82	0xbe0803a4	-0.13282639
83	0xbb749a06	-0.003732325
84	0x3d86fa0d	0.06590662
85	0xbcd89feb	-0.026443442
86	0x3e129c30	0.14317393
87	0xbdcd2654	-0.10017076
88	0xbd3b1e92	-0.04568345
89	0x3d3cffb1	0.046142284
90	0xbcc02b04	-0.023458011
91	0x3d5112e7	0.051043417
92	0x3c90bb54	0.01766745
93	0xbe11ec2d	-0.1425025
94	0xbd8d6010	-0.06903088
95	0x3d9ad072	0.07559289
96	0xbb131520	-0.0022443011
97	0xbd585c9c	-0.052822694
98	0x3d6d661c	0.057958707
99	0xbc043f48	-0.008071728
100	0x3c661cbc	0.014044937
101	0xbd4739ad	-0.04863899
102	0xbdbb0c78	-0.091332376
103	0xbe023d41	-0.12718679
104	0x3d25fb87	0.04052308
105	0xbd9262e4	-0.07147768
106	0x3d539b1a	0.05166159
107	0x3cad7aee	0.021176782
108	0xbd236cd4	-0.03989871
109	0xbda8b63b	-0.08237883
110	0xbdbee016	-0.09320085
111	0x3d547f18	0.05187902
112	0xbdc6a999	-0.09700317
113	0xbdd60876	-0.104508325
114	0xba9d4fbe	-0.0012001914
115	0xbdbab31d	-0.091161944
116	0xbd31a48c	-0.043369815
117	0xbe106a4a	-0.14103046
118	0x3cdc399b	0.026882937
119	0xbcaaa781	-0.020831825
120	0x3d796bbf	0.06089377
121	0x3d84c4f3	0.064828776
122	0x3df3afce	0.118987665
123	0xbaf294b0	-0.0018507447
124	0xbde5e3cd	-0.1122509
125	0x3ce4ce9d	0.027930552
126	0xbd3bf812	-0.045890875
127	0xbddb1f1d	-0.10699294
128	0xbd568d11	-0.052380625
129	0x3d82d04c	0.06387386
130	0x3ccaec74	0.024770953
131	0xbe4a7e9a	-0.19774857
132	0x3e12db3f	0.14341448
133	0xbb6d7a4a	-0.003623622
134	0xbcdd035c	-0.026979141
135	0x3df4ccf3	0.119531535
136	0xbdc65a70	-0.09685218
137	0xbe44b6bf	-0.19210337
138	0x3d54f95c	0.05199562
139	0xbdd73a2f	-0.105091445
140	0x3de16772	0.11006059
141	0x3b966a9d	0.004590346
142	0x3e1907fb	0.1494445
143	0xbc8030fd	-0.01564836
144	0xbdc8687b	-0.09785553
145	0x3c3cc1ba	0.011520797
146	0x3c1c5ac3	0.009543124
147	0x3dda066e	0.106457576
148	0xbc3bae56	-0.011455139
149	0x3b783253	0.0037871792
150	0xbcea22ad	-0.028580988
151	0xbbdc0d9e	-0.0067154905
152	0x3d21fc88	0.039547473
153	0xbded2d27	-0.11580878
154	0x3d625f88	0.055266887
155	0xbd708236	-0.05871793
156	0x3bbf68c4	0.0058413465
157	0x3cf71922	0.030163351
158	0xbd01c162	-0.031678565
159	0x3dd56f2c	0.10421595
160	0x3d0c6db6	0.034284316
161	0xbcad792a	-0.02117594
162	0xbdc67841	-0.09690905
163	0xb983b940	-0.0002512429
164	0x3e02d1fa	0.12775412
165	0x3c9cb78a	0.019130487
166	0x3cf47b92	0.02984408
167	0xbda0a04d	-0.07843075
168	0xbd112ce9	-0.03544322
169	0xbd13b5a1	-0.036061887
170	0xbdb67b07	-0.08910184
171	0x3d9be537	0.07612079
172	0x3d2081c8	0.03918627
173	0xbcdf22b9	-0.027238237
174	0xbd58c484	-0.052921787
175	0xbe17f97b	-0.14841263
176	0xbe0ede5a	-0.13952008
177	0x3af7b691	0.0018899014
178	0x3dab426e	0.0836228
179	0x3b5bea47	0.0033556388
180	0x3c15b00f	0.009136214
181	0xbc97f84a	-0.01855101
182	0x3da9fe13	0.08300414
183	0x3dd06722	0.10175921
184	0xbdcf737f	-0.10129451
185	0xbdb55714	-0.088544995
186	0x3d831bfe	0.064018235
187	0xbdd7267f	-0.105053894
188	0x3cef8cbe	0.029241916
189	0xbe10bdf5	-0.14134963
190	0x3e1a7918	0.15085256
191	0xbcaf4adc	-0.021398
192	0x3dd5a70f	0.104322545
193	0x3ca14660	0.019686878
194	0x3e117220	0.14203691
195	0xbdbee494	-0.093209416
196	0x3d88c1c2	0.06677581
197	0x3d758d0c	0.059948966
198	0x3e14ea5a	0.14542523
199	0x3da9b705	0.08286861
200	0x3dc2bba7	0.09508448
201	0xbc0ca42f	-0.008584066
202	0xbd3c980b	-0.046043437
203	0x3d77ca39	0.06049559
204	0xbd6de20c	-0.058076903
205	0x3c1c3c23	0.009535822
206	0xb9b44db2	-0.00034390163
207	0xbca94e39	-0.020667182
208	0x3de14997	0.11000364
209	0x3dd88865	0.1057289
210	0x3d71b1a2	0.059007294
211	0xbd81a0f7	-0.0632953
212	0xbd279a01	-0.040918354
213	0xbdaa278a	-0.08308323
214	0xbc19ef27	-0.009395397
215	0xbc626e1d	-0.013820198
216	0x3c4bf37e	0.01244819
217	0x3e0213f2	0.12702921
218	0x3d60b69f	0.05486166
219	0xbde3f507	-0.1113072
220	0xbd2df612	-0.042471
221	0x3dd1de55	0.102474846
222	0x3c966df1	0.018362971
223	0x3c53ea21	0.012934239
224	0x3da082b9	0.07837433
225	0x3dd1b06c	0.10238728
226	0x3cdff5e4	0.02733893
227	0xbc0ad3f9	-0.00847339
228	0xbd2b065a	-0.041754104
229	0x3d2a25e5	0.041540045
230	0xbe02f2a6	-0.12787876
231	0xbdc163dc	-0.09442875
232	0x3d0023ce	0.031284146
233	0xbd9aaae7	-0.07552128
234	0x3c6e44be	0.014542757
235	0xbd47fbfa	-0.048824288
236	0x3d7c7655	0.061636288
237	0x3c514a33	0.012774038
238	0xbdea5ffb	-0.11444088
239	0xbd838926	-0.06422643
240	0xbd2db086	-0.042404674
241	0x3dc03f7a	0.09387107
242	0x3c975d74	0.01847718
243	0x3cac9c8c	0.021070741
244	0x3d9c5ce5	0.07634906
245	0x3a9ac1e8	0.0011807056
246	0xbcd27495	-0.025690356
247	0x3d31d3b3	0.043414783
248	0x3d363702	0.044486053
249	0xbcbeeabd	-0.023305291
250	0x3dbaf4a2	0.09128691
251	0x3bad9b35	0.005298043
252	0xbd1d8e3c	-0.038465723
253	0x3cbc0023	0.022949284
254	0xbc7fe364	-0.015618179
255	0xbd5d68b7	-0.054054942

decoder_blocks.0.multiheaded_self_attention.W_QKV.bias f4 [192]
0	0xbd823125	-0.0635703
1	0x3ce01201	0.027352335
2	0x3d026161	0.03183115
3	0xbc72fa1f	-0.014830141
4	0x3ce31f98	0.027725026
5	0x3bfc02b8	0.007690754
6	0xbdca11b2	-0.09866656
7	0xbc8ef5fd	-0.01745128
8	0xbbeaf049	-0.0071697575
9	0xbda47ef7	-0.08032029
10	0xbdc37e1e	-0.09545539
11	0xbd16dc38	-0.03683111
12	0x3d928f50	0.07156241
13	0x3d0b8b37	0.034068312
14	0xbc2cebdd	-0.010554281
15	0xbd8480a8	-0.06469852
16	0x3d60ff00	0.054930687
17	0xbd1296ac	-0.035788223
18	0x3daac407	0.083381705
19	0x3db51757	0.08842342
20	0xbe1ed1e1	-0.1550975
21	0x3d9e1860	0.07719493
22	0xbe183081	-0.14862253
23	0x3d7292b4	0.05922194
24	0xbc81f661	-0.015864553
25	0x3c50a5b6	0.012734821
26	0x3e0d7523	0.13814215
27	0xbd6c90a3	-0.057755124
28	0x3d85bf70	0.065306544
29	0x3da4f952	0.080553666
30	0x3d5b1a12	0.05349166
31	0xbdff8a02	-0.12477495
32	0xbc4b0db4	-0.012393404
33	0xbc77c58a	-0.015122781
34	0x3def4310	0.11682713
35	0xbc9a2f03	-0.018821245
36	0xbdc3724c	-0.09543285
37	0xbd9d9bd0	-0.076957345
38	0xbb92085a	-0.004456562
39	0xbdb6bc4a	-0.08922632
40	0xbd0ae884	-0.03391315
41	0xbd1ecfe9	-0.038772497
42	0x3d1c1402	0.03810502
43	0xbda1cb5e	-0.07900117
44	0xbd79efbf	-0.061019655
45	0xbe3c986b	-0.18417518
46	0x3dc46979	0.0959043
47	0x3e207d54	0.15672809
48	0x3d946f8d	0.07247839
49	0xbb9c1e94	-0.0047643874
50	0xbb96d83d	-0.0046034143
51	0x3b3e490d	0.002903524
52	0x3dc9298a	0.09822376
53	0xbd426f22	-0.047469266
54	0x3dc0c667	0.09412842
55	0x3d608156	0.054810844
56	0x3d5350bf	0.051590677
57	0x3e110c25	0.14164789
58	0xbdcb0e39	-0.09914822
59	0xbda609a7	-0.0810731
60	0xbd96c153	-0.073610924
61	0x3d1c7156	0.038194023
62	0x3e2d9df0	0.1695478
63	0xbd437847	-0.047722127
64	0xbe009aa2	-0.12558988
65	0xbc65e292	-0.014031069
66	0xbd956626	-0.07294874
67	0xbdda4f50	-0.10659659
68	0xbdf051d3	-0.11734357
69	0xbc4ef594	-0.012631793
70	0x3dfdc7fd	0.1239166
71	0x3c7323b3	0.014840054
72	0xbdb159e3	-0.08659723
73	0x3db9bb57	0.09068935
74	0xbd8589c2	-0.06520416
75	0x3c6bddcc	0.014396142
76	0x3dd3b484	0.10337165
77	0x3b9ce78e	0.0047883457
78	0xbca37f8f	-0.019958286
79	0x3d24e46f	0.040256914
80	0xbdb8780d	-0.09007273
81	0xbd30eded	-0.043195654
82	0xbdaba8c4	-0.08381799
83	0x3ad49dc2	0.0016221332
84	0xbdb32b95	-0.08748547
85	0x3dcb641a	0.09931202
86	0x3dc33bf7	0.09532922
87	0xbcf97430	-0.03045091
88	0xbdbd2fe0	-0.09237647
89	0x3db9f455	0.09079806
90	0xbd2884b8	-0.041142195
91	0xbda49e82	-0.080380455
92	0x3de3ac98	0.11116904
93	0xbc223066	-0.009899234
94	0x3d2f2c0d	0.04276662
95	0x3dad04ad	0.084481575
96	0x3d2bc83d	0.04193901
97	0xbdafc766	-0.08582954
98	0xbd1d0bca	-0.03834132
99	0x3c7e21fe	0.015511034
100	0xbc669d86	-0.014075642
101	0x3d718f59	0.058974598
102	0x3b206f56	0.0024480424
103	0xbdcedb77	-0.10100453
104	0xbd7e8cfc	-0.062146172
105	0xbd589c18	-0.052883238
106	0xbdb048f8	-0.08607668
107	0xbda0faaa	-0.078603104
108	0xbc943e0b	-0.01809599
109	0x3d6d3230	0.05790919
110	0x3d7627bb	0.060096484
111	0xbdc66232	-0.09686698
112	0x3b661a87	0.0035111026
113	0xbd93861a	-0.07203312
114	0x3cb9b181	0.022667648
115	0x3d99015b	0.07470962
116	0x3db490ba	0.08816667
117	0x3d826296	0.0636646
118	0x3c550e59	0.013003909
119	0xbd0aab3d	-0.03385471
120	0x3dcc5bcf	0.099784486
121	0x3da46699	0.080273814
122	0xbd9142d8	-0.070928276
123	0x3be8eb30	0.0071081147
124	0x3cb58cd3	0.022161877
125	0x3ae6b864	0.001760256
126	0x3c5dc8f2	0.013536679
127	0x3d81db63	0.06340673
128	0xbd63a46a	-0.05557672
129	0x3d4e1b5c	0.05031906
130	0x3d84bd01	0.06481362
131	0x398ddf2c	0.00027059892
132	0xbc6e3de9	-0.014541128
133	0x3cf17f52	0.029479656
134	0x3da56520	0.08075929
135	0xbd4960ca	-0.04916457
136	0xbdbbca81	-0.09169484
137	0x3dd55320	0.104162455
138	0x3d814ecb	0.06313857
139	0xbd5f98db	-0.054589134
140	0x3d9885f5	0.07447425
141	0xbd171e12	-0.03689391
142	0x3d5bf34f	0.053698834
143	0xbdd4ef68	-0.103972256
144	0xbb39185b	-0.0028243277
145	0x3c85c983	0.01633144
146	0x3dcdc207	0.100467734
147	0xbc3d595e	-0.011556951
148	0x3dc55039	0.09634442
149	0xbdb9f353	-0.090796135
150	0xbdcdf88e	-0.10057174
151	0x3ded2481	0.11579228
152	0xbcbb75dd	-0.02288335
153	0x3de9885b	0.11402961
154	0xbd8327c9	-0.06404073
155	0x3c6f4682	0.014604213
156	0x3c85afab	0.016319117
157	0xbd433160	-0.04765451
158	0x3dd022e7	0.10162907
159	0xbd571b59	-0.052516315
160	0x3d92696b	0.07149013
161	0xbdde5938	-0.10856861
162	0x3da2963a	0.0793881
163	0xbbba0a9e	-0.005677535
164	0xbdd7f366	-0.105444714
165	0x3dbb501a	0.091461375
166	0x3d6bcc04	0.05756761
167	0x3c58aac0	0.013224304
168	0xbd1e3c2f	-0.038631614
169	0x3cf690b8	0.030098304
170	0x3d9bb09c	0.07602045
171	0x3cd6e2ca	0.026231188
172	0xbe07c214	-0.13257629
173	0xbd94ed5e	-0.07271837
174	0x3deae39b	0.114691935
175	0x3da5924f	0.08084547
176	0xbd97751a	-0.07395382
177	0xbdc41d57	-0.09575909
178	0xbdc55baa	-0.09636624
179	0xbd871e9c	-0.06597635
180	0xbd94bd38	-0.07262653
181	0xbd37a594	-0.044835642
182	0x3dda5213	0.10660186
183	0xbdce7888	-0.10081583
184	0x3ddf9320	0.10916734
185	0x3de1ef15	0.110319294
186	0x3d08f2a3	0.03343452
187	0xbd8aa867	-0.067704014
188	0xbd1c7d45	-0.038205404
189	0xbe0224fb	-0.1270942
190	0x3b4c94bd	0.0031216585
191	0xbdda0598	-0.10645598

decoder_blocks.0.multiheaded_self_attention.W_O.weight f4 [64, 64]
0	0x3cf7b9c4	0.030239947
1	0x3db88792	0.09010233
2	0xbdc59b0a	-0.09648712
3	0xbd6fc598	-0.05853805
4	0x3d965614	0.07340637
5	0xbe0c9441	-0.1372843
6	0x3deff973	0.117175005
7	0x3d4ce8db	0.050026756
8	0xbdc62ac1	-0.096761234
9	0xbdaf6ff4	-0.08566275
10	0x3e05614e	0.130254
11	0x3deb7866	0.114975736
12	0x3db4d50e	0.088296995
13	0xbdcb497a	-0.09926124
14	0x3d863c70	0.06554496
15	0x3db8f680	0.09031391
16	0xbd53c85c	-0.05170475
17	0x3d81e2a4	0.063420564
18	0xbd7cbd21	-0.061703805
19	0xbd2ea2e3	-0.04263581
20	0x3dda660e	0.10663997
21	0xba552e40	-0.0008132197
22	0x3be1782b	0.00688078
23	0x3d37905f	0.044815417
24	0xbd1367eb	-0.035987776
25	0x3da6f278	0.08151716
26	0x3e12c913	0.14334516
27	0xbce1df02	-0.027572159
28	0x3d4364f8	0.047703713
29	0x3e018aa8	0.1265055
30	0xbd6a2dd6	-0.05717262
31	0x3d6e81e3	0.05822934
32	0x3c1a6535	0.009423544
33	0xbaf46bed	-0.0018647887
34	0xbd7d49ae	-0.061837845
35	0xbd8897be	-0.066695675
36	0xbdd84be7	-0.10561352
37	0xbdaa4e3d	-0.08315704
38	0xbdc41729	-0.0957473
39	0xbdc5361b	-0.096294604
40	0xbc9821fd	-0.018570894
41	0xbdc3162a	-0.09525712
42	0xbc28f6cd	-0.010312748
43	0xbdfe12af	-0.12405907
44	0x3beea3f0	0.0072827265
45	0x3dbdb401	0.09262849
46	0x3e0b85e4	0.13625294
47	0x3b9d7a94	0.004805872
48	0xbdda7dec	-0.10668549
49	0x3dbe0e95	0.09280125
50	0xbd20eb23	-0.039286744
51	0xbde81f6e	-0.1133412
52	0xbd3b0888	-0.045662433
53	0xbda8c431	-0.082405455
54	0x3dd50bd6	0.10402648
55	0xbd4012f0	-0.04689306
56	0x3e212977	0.15738474
57	0x3d2ef5a2	0.042714722
58	0xbe06a102	-0.13147357
59	0x3d86f4e3	0.06589677
60	0xbc24e234	-0.010063697
61	0xbd7d109f	-0.06178343
62	0xbe0ebf57	-0.13940178
63	0x3d3853d6	0.045001827
64	0x3d2c00be	0.041992895
65	0x3cd00762	0.025394145
66	0x3be001ad	0.0068361373
67	0x3d9834d1	0.07431949
68	0xbcc18950	-0.023625046
69	0x3c452cb0	0.01203458
70	0xbdbf2141	-0.093325146
71	0x3cb70b0d	0.022344137
72	0xbbd602c4	-0.0065310914
73	0x3c907070	0.01763174
74	0xbc70876d	-0.0146807255
75	0x3dc06b46	0.09395461
76	0xbda6b388	-0.081397116
77	0xbca34708	-0.019931331
78	0xbdcee118	-0.10101527
79	0xbd09498d	-0.03351741
80	0x3c99ec22	0.018789355
81	0x3d4f635e	0.050631873
82	0x3d0927a7	0.03348508
83	0xbdd95000	-0.10610962
84	0x3c4cdd66	0.012503957
85	0xbde95f33	-0.11395111
86	0xbcc48478	-0.023988947
87	0xbd4e8d9f	-0.05042803
88	0xbcd609f6	-0.026127797
89	0xbdc04d09	-0.09389693
90	0xbdc2e048	-0.095154345
91	0xbd92d4ba	-0.071694806
92	0x3b1dc3f2	0.0024073091
93	0x3df2c656	0.11854236
94	0xbd4a57aa	-0.04940001
95	0x3d386360	0.045016646
96	0x3d733499	0.059376333
97	0x3d34e5b4	0.044164374
98	0x3db4e3d6	0.08832519
99	0x3db4cfbd	0.088286854
100	0xbc9d0bf2	-0.019170735
101	0xbdbe89f5	-0.09303657
102	0xbd76e9bb	-0.060281496
103	0x3d8f70c2	0.07003929
104	0x3d9f4b82	0.07778074
105	0xbd41cf2e	-0.047316723
106	0xbd49f045	-0.049301405
107	0x3cd00bbe	0.025396224
108	0xbda8c3ad	-0.08240447
109	0x3deb987d	0.11503694
110	0x3dbe7e3e	0.093014225
111	0x3d2d216c	0.0422682
112	0xbd80ab61	-0.06282688
113	0x3d908a21	0.07057596
114	0xbde9da85	-0.114186324
115	0x3c94c960	0.01816243
116	0xbc0d8fcb	-0.00864024
117	0x3bf5f0c7	0.0075055095
118	0xbda9ff96	-0.08300702
119	0xbdd5455b	-0.10413619
120	0xbcd1c719	-0.025607632
121	0x3d63508a	0.05549673
122	0xbcb9e2b0	-0.0226911
123	0x3d290ac9	0.04127005
124	0x3d4ea002	0.050445564
125	0xbd990d48	-0.07473236
126	0xbe06aaa7	-0.13151036
127	0xbda25ae8	-0.07927495
128	0x3dba1436	0.09085886
129	0xbc8224ad	-0.015886629
130	0x3dd404f5	0.10352508
131	0x3d429286	0.047503017
132	0x3d687059	0.056747768
133	0xbd1f8254	-0.03894265
134	0x3c8d8ac9	0.017278092
135	0xbdd31e3f	-0.10308503
136	0x3c7ea49e	0.0155421775
137	0xbd29c34e	-0.041446023
138	0xbd243d37	-0.04009744
139	0x3d82b265	0.06381682
140	0x3dda7e9a	0.106686786
141	0x3d074f2c	0.03303449
142	0xbdd80625	-0.10548047
143	0x3d3f0028	0.04663101
144	0xbcd95d0c	-0.026533626
145	0x3c4eaa7a	0.012613887
146	0x3d13a340	0.03604436
147	0xbdb5a584	-0.0886946
148	0xbd93940a	-0.072059706
149	0x3d0e5a3b	0.03475402
150	0x3dd4c348	0.103888094
151	0xbd0977ca	-0.033561505
152	0xbda7119d	-0.08157656
153	0xba563562	-0.0008171407
154	0x3d91ebb4	0.07125035
155	0x3d85e410	0.0653764
156	0xbdf04439	-0.117317624
157	0xbd8dfcfd	-0.06933019
158	0xbd2f92d5	-0.04286464
159	0x3dd5a3c1	0.10431624
160	0xb8e9d836	-0.00011150578
161	0x3da79319	0.081823535
162	0xbc0c17ce	-0.008550597
163	0x3d2d6c6d	0.04233973
164	0x39d03931	0.00039715462
165	0xbddd11b0	-0.10794389
166	0x3d2eda28	0.04268852
167	0xbcb2f90d	-0.021847272
168	0xbd1a1202	-0.03761483
169	0xbd8d4c91	-0.068993695
170	0xbd6ad102	-0.05732823
171	0xbdd55c90	-0.104180455
172	0x3b14500e	0.0022630724
173	0x3e022d19	0.12712516
174	0xbd37a30c	-0.044833228
175	0x3dc0e351	0.09418357
176	0x3d2fdafc	0.04293345
177	0x3b0f30bb	0.0021849114
178	0x3cf6cf87	0.030128254
179	0x3c78b12b	0.015178959
180	0x3cd5aef8	0.026084408
181	0x3cae5690	0.02128151
182	0xbdf18011	-0.11792005
183	0xbbfe5a3e	-0.0077622226
184	0xbd98f16b	-0.07467922
185	0xbd193753	-0.037406277
186	0xbd72a048	-0.059234887
187	0xbdc856e3	-0.09782197
188	0xbdb0a7d0	-0.08625758
189	0xbd86554c	-0.06559238
190	0x3d50da1f	0.050989266
191	0x3d369d2f	0.044583496
192	0x3d057b14	0.03258808
193	0x3d2f36a6	0.042776726
194	0xbd48d048	-0.049026757
195	0x3de6a2b6	0.112615034
196	0x3ca57d32	0.0202013
197	0xbcca624d	-0.024705077
198	0xbd4b8222	-0.04968465
199	0xbc3e40e3	-0.01161215
200	0xbc8ebef0	-0.01742503
201	0x3d9ed3f5	0.07755271
202	0xbd486c93	-0.04893167
203	0x3c83680e	0.016040828
204	0xbcf7a00f	-0.03022769
205	0x3dc8496c	0.09779629
206	0x3b9d1ec7	0.0047949287
207	0xbd211436	-0.039325915
208	0x3d30ebb3	0.04319353
209	0x3dec6cce	0.1154419
210	0x3d3e5469	0.04646722
211	0x3de41b50	0.11138022
212	0x3ce25660	0.027629077
213	0x3e00c09d	0.12573476
214	0x3d6e2243	0.058138143
215	0xbdb7a9a4	-0.08967903
216	0x3d5b4f51	0.05354244
217	0x3d3eb203	0.046556484
218	0xbcaf19db	-0.021374634
219	0x3df8617b	0.12127968
220	0x3b73a199	0.0037175177
221	0xbd829003	-0.06375124
222	0x3d2244f5	0.039616544
223	0x3de67651	0.11253036
224	0x3d74c284	0.059755817
225	0x3d1ec0d9	0.038758133
226	0x3d17fb1f	0.037104722
227	0x3d9a2157	0.0752589
228	0x3d86d9d4	0.06584516
229	0x3ddac0f5	0.10681335
230	0x3ddedac8	0.10881573
231	0xbd133796	-0.035941683
232	0xbda61e2f	-0.08111226
233	0x3d6a11a4	0.05714573
234	0x3cb4b484	0.022058733
235	0xbcc5f0b6	-0.024162631
236	0x3da124ae	0.07868324
237	0x3d868298	0.065678775
238	0x3e03519c	0.128241
239	0xbdc5dbbc	-0.09661052
240	0x3da42576	0.080149576
241	0x3c2c65a8	0.010522284
242	0xbdd45be9	-0.10369093
243	0x3dc0184b	0.093796335
244	0xbd4c0de8	-0.04981795
245	0xbd50667a	-0.05087898
246	0x3d70d31b	0.058795076
247	0x3cd777f0	0.026302308
248	0x3c6e9017	0.014560721
249	0xbc02f9af	-0.0079940995
250	0x3d2da468	0.04239312
251	0x3e001169	0.12506641
252	0x3dd5631d	0.10419295
253	0x3c463eb8	0.012099914
254	0xbc050437	-0.008118681
255	0xbc9d5223	-0.019204205

decoder_blocks.0.multiheaded_self_attention.W_O.bias f4 [64]
0	0x3d8084f4	0.06275359
1	0xbd107fa8	-0.035277992
2	0x3dbfa3fc	0.093574494
3	0x3d401226	0.046892308
4	0x3ba69eda	0.0050848546
5	0xbd97c6c1	-0.07410956
6	0x3dcb1cfd	0.099176385
7	0xbd830546	-0.0639749
8	0xbdfd6c4b	-0.12374171
9	0xbbd9d81d	-0.006648077
10	0x3e0399ff	0.12851714
11	0x3c87045d	0.016481573
12	0xbd91ec3c	-0.07125136
13	0x3dd6ab1d	0.10481856
14	0xbd187654	-0.03722222
15	0xbc19160b	-0.009343634
16	0xbcfe781b	-0.03106313
17	0x3da6cf2a	0.08144982
18	0x3d1dc556	0.038518272
19	0x3d5193f0	0.051166475
20	0x3d797b8c	0.06090884
21	0xbdc6aa30	-0.097004294
22	0x3da73e83	0.0816622
23	0xbcceb108	-0.0252309
24	0xbbdd1dff	-0.0067479606
25	0xbdd1f4c7	-0.10251766
26	0xbdba7ce9	-0.09105856
27	0x3cc2d397	0.023782535
28	0xbdabeaaa	-0.08394368
29	0xbd0a173b	-0.03371356
30	0xbd59ec81	-0.053204063
31	0xbbd579f5	-0.0065147826
32	0x3d4926ba	0.0491092
33	0x3c614376	0.013748994
34	0x3d5c70de	0.053818576
35	0x3e0ed8d6	0.13949904
36	0x3a31c882	0.0006781892
37	0xbcbe2fb2	-0.023216102
38	0x3dacc083	0.08435156
39	0xbd7c717a	-0.061631657
40	0xbc486901	-0.012232066
41	0x3cca0884	0.024662264
42	0x3d5c5ab0	0.053797424
43	0x3d05de9e	0.032683007
44	0x3d953e07	0.072872214
45	0x3dfdd059	0.12393255
46	0xbd63f6b0	-0.05565518
47	0xbce213e3	-0.027597373
48	0xbd8c1b86	-0.06841187
49	0xbd16c40b	-0.036808055
50	0x3d0b73ba	0.034045912
51	0xbdc5717e	-0.096407875
52	0xbddad608	-0.106853545
53	0x3d215629	0.03938881
54	0xbcf24d7a	-0.02957796
55	0x3ddccf2f	0.10781705
56	0x3ceff2cd	0.029290581
57	0xbc1fc301	-0.009751082
58	0x3d6493c2	0.055804975
59	0x3debd9f1	0.115161784
60	0x3b93b334	0.0045074467
61	0xbd321fdd	-0.04348742
62	0xb95df0ae	-0.00021165863
63	0xbd9ac99b	-0.075579844
